Model: "sequential"
_________________________________________________________________
 Layer (type)                Output Shape              Param #   
=================================================================
 dense (Dense)               (None, 352)               10560     
                                                                 
 dropout (Dropout)           (None, 352)               0         
                                                                 
 dense_1 (Dense)             (None, 224)               79072     
                                                                 
 dropout_1 (Dropout)         (None, 224)               0         
                                                                 
 dense_2 (Dense)             (None, 1)                 225       
                                                                 
=================================================================
Total params: 89,857
Trainable params: 89,857
Non-trainable params: 0
_________________________________________________________________
Epoch 1/337
  1/122 [..............................] - ETA: 2:55 - loss: 226279072.0000 - r_square: -0.0429
…
